experiments/mpiigaze/resnet_preact/exp00/00/checkpoint_0010.pth (torch, 643216 bytes, 64 tensors)

conv.weight f4 [16, 1, 3, 3]
000000 c7 d9 35 be 1d e7 10 3d fa a3 53 3d ed e3 78 bd
       -0.17758857 0.035376657 0.051670052 -0.060764242
000010 bb 86 c4 3d 78 8e 8c 3d 3a a8 2b bd 92 49 e2 bd
       0.0959601 0.06863111 -0.04190848 -0.11049189
000020 76 8d 6e bc ef 6e 3d bc 76 51 14 bd 28 92 e7 3d
       -0.014560094 -0.011562093 -0.0362105 0.11307174
000030 3f f4 bc bd b3 b6 b9 bd 7c ea 0b 3d 72 92 09 bc
       -0.09226274 -0.0906805 0.03415917 -0.008396732
000040 24 0e d2 bd 37 95 01 3c 35 67 87 3c 4f 96 f6 3d
       -0.10256603 0.007909111 0.016528705 0.12040388
000050 bb 53 66 3e 85 43 9b bd 8b d0 8f 3d 2c 0d 08 3c
       0.22492878 -0.07581238 0.07022198 0.008303922
000060 ba 74 01 be 11 a3 d3 bd 0e 20 a6 bd e5 af 66 3d
       -0.12642184 -0.10333837 -0.08111583 0.05632009
000070 18 01 f5 3c 48 6d 37 3c 9d 38 99 3d db 0c a8 3b
       0.029907748 0.011195488 0.07481501 0.0051284856
000080 c5 f9 e8 3c f4 61 0f 3d 89 2e e3 3c 7b b8 2d bc
       0.028439412 0.035005525 0.02773215 -0.010603066
000090 31 53 ec 3d b7 04 51 3d 20 6b a8 bc 06 73 82 3d
       0.11539305 0.051029887 -0.020558894 0.06369595
0000a0 41 cd 9f bc 51 da 45 3d dd db 46 bd 7d cb 3d bd
       -0.019507052 0.048303906 -0.04854952 -0.04633664
0000b0 2f 21 b4 3c ae 71 4a 3d 22 57 82 bd 86 ce e4 bd
       0.02198848 0.04942482 -0.063642755 -0.11172204
0000c0 a3 b9 d7 bd 66 00 9b bd ff b9 39 bd 6a 9d 36 3d
       -0.10533454 -0.07568435 -0.045343395 0.044583715
0000d0 69 28 bd 3d e2 8c bd 3d 69 18 05 3d 4f 04 56 ba
       0.09236223 0.09255387 0.032493982 -0.0008164094
0000e0 27 dd d5 bb 0c 5a 04 bd c3 f6 86 bd 42 fb 4d bd
       -0.0065266076 -0.032312438 -0.06590035 -0.050288446
0000f0 7c 0f 72 bd fe ec 3f bc c7 f7 34 bd 0d d8 50 3c
       -0.0590968 -0.011714218 -0.04418161 0.012746823
000100 49 77 b9 bc 47 89 3b 3d b0 b2 04 3e 26 9e ad 3d
       -0.022639887 0.045785215 0.12958789 0.0847743
000110 c4 9e 09 bd 49 b2 8d 3c 4f d4 9c bc 97 60 22 bc
       -0.033598676 0.017296927 -0.019144205 -0.009910724
000120 7c 5f b0 3c 9f e6 ba bd a1 2d 5c bd e5 fa 30 bd
       0.021529905 -0.09126019 -0.053754453 -0.04320802
000130 65 73 9a bd 83 9f 9a bd cf 96 9a 3d 87 68 e4 3c
       -0.07541541 -0.07549956 0.07548296 0.027881874
000140 d6 4d 76 3c ae 68 10 3e fc c6 72 3c 3e 90 32 3d
       0.015033206 0.14102432 0.014817949 0.04359459
000150 12 91 9c 3d 6e f8 95 bd 68 52 cf bd 64 f2 83 bc
       0.076448575 -0.07322775 -0.101231396 -0.016106792
000160 95 02 ab bd 43 26 09 be e4 7d 93 bb 1c 8a 41 bc
       -0.08350102 -0.13393502 -0.0045010913 -0.011812713
000170 64 8b ca 3d 7c 35 0f bd 37 56 dd bc be 98 be 3d
       0.09889868 -0.034963116 -0.02701865 0.09306477
000180 3b 89 e0 ba a2 7e 25 3d 0a e3 98 3d 3d b9 80 3c
       -0.0017130742 0.04040397 0.07465179 0.015713328
000190 0e 97 9a bc 80 ae 47 bd b0 89 da bd 4e 68 5b bc
       -0.018870857 -0.0487504 -0.10670793 -0.013391567
0001a0 32 88 b9 3c bd 70 e9 bd 86 12 e4 3c 2a 96 48 bd
       0.02264795 -0.11398456 0.027840864 -0.048971333
0001b0 0b f9 ac bd 4a 87 fc bd 83 45 40 be 0f c1 c0 3d
       -0.08445939 -0.12330492 -0.18776517 0.09411823
0001c0 a7 8d c0 3d c6 32 c1 bd 52 ac 82 3e b0 5a 98 3d
       0.09402018 -0.094335124 0.25522095 0.07439172
0001d0 c5 65 b3 bd bb d4 da 3d a5 9b 43 3d a9 5b ca bc
       -0.087596454 0.10685106 0.047755856 -0.02470191
0001e0 1c 65 5a 3a 50 bc 9d 3d b4 39 1b bc f1 61 10 bd
       0.00083311065 0.077019334 -0.009474207 -0.035249654
0001f0 1e 7e c9 3c 65 13 ab 3b ba ff 98 3d 97 1e 8e bd
       0.02459627 0.005220818 0.07470651 -0.06939428
000200 8c 6d 23 be bd 02 0a 3e 7f 0f a9 3c 1c 7c 03 be
       -0.15959758 0.13477607 0.020637272 -0.12840313
000210 2b a6 0f 3d 9b a5 97 bd 8d 7d 01 bd a6 3f d5 3d
       0.03507058 -0.074046336 -0.031613875 0.104125306
000220 1a d4 a1 3d 9a 66 83 3d 62 3c 86 bd 52 4c 84 bd
       0.07901783 0.06416054 -0.06554486 -0.064598694
000230 bc 19 ae ba 44 01 3a bd 3d 9f 12 be 1d 03 42 bc
       -0.0013282816 -0.045411363 -0.14318557 -0.011841563

stage1.block1.bn1.weight f4 [16]
000000 69 e9 84 3e 21 58 82 3e 54 eb a1 3e a5 b6 77 3e
       0.25959328 0.25457862 0.31624854 0.24190767
000010 a3 b8 68 3e c4 ad 8e 3e 7b e0 7c 3e 99 13 87 3e
       0.22726683 0.27866948 0.24695008 0.2638214
000020 09 de 8a 3e 19 b9 98 3e f5 fd 8d 3e 72 54 72 3e
       0.27122524 0.29828718 0.27732816 0.23665026
000030 a0 91 88 3e 4e 96 7a 3e 49 51 8d 3e 1b 21 87 3e
       0.26673603 0.24471399 0.27601078 0.26392445

stage1.block1.bn1.bias f4 [16]
000000 2d 34 dc bc 1a b1 15 3b 91 ec 41 3c 7f ff 8e bd
       -0.026880348 0.0022841156 0.011836187 -0.06982326
000010 9f e5 32 bc 85 34 8a bb 60 01 1f bd 92 87 85 bd
       -0.010919004 -0.0042176866 -0.03881967 -0.065199986
000020 e3 44 8e bd 9e e8 90 3d 58 b0 80 bc b3 52 69 bd
       -0.06946733 0.07075618 -0.015709087 -0.056963634
000030 d8 d9 58 3d c7 b5 8c bc 09 fc 29 bc a4 2f 09 bc
       0.052942127 -0.017176522 -0.010375031 -0.008373175

stage1.block1.bn1.running_mean f4 [16]
000000 52 be 97 bd 0f bb c2 bd 3e 5e e5 3c 1a bd 00 3e
       -0.074093476 -0.09508335 0.02799904 0.12572137
000010 5c 4c a3 3d 0d 2d 90 bd 5e 8b f1 bd b4 0f d6 3d
       0.07973549 -0.07039843 -0.1179416 0.10452214
000020 98 ae be bd a0 dc 94 bd fe d1 e3 3d 56 5c 0d be
       -0.09310645 -0.072686434 0.11124037 -0.13804755
000030 8d d1 28 bc e9 78 c3 3d dd 5a c1 bd aa 1c 55 bd
       -0.010303867 0.09544546 -0.09441159 -0.05202929

stage1.block1.bn1.running_var f4 [16]
000000 51 4d 43 3b 55 f1 75 3b 5a 80 dc 3b 81 5e a4 3b
       0.0029800723 0.0037527878 0.006729168 0.0050161486
000010 5c 09 35 3b 99 dd 78 3b 2f 7f 92 3b 62 06 73 3b
       0.0027623987 0.003797388 0.004470728 0.0037082662
000020 77 71 80 3b 21 15 98 3b f2 c0 90 3b 7a 34 c7 3b
       0.003919776 0.0046411906 0.004417532 0.0060792537
000030 b4 6c fe 3b 87 e7 50 3b 01 02 9b 3b de b8 5b 3b
       0.0077644233 0.0031876282 0.0047304635 0.0033526937

stage1.block1.conv1.weight f4 [16, 16, 3, 3]
000000 4e 1d db 3c 48 6d 6f bd bb d2 3e bc 13 99 9c bc
       0.026747372 -0.058453828 -0.011646922 -0.01911596
000010 17 ed 95 bd 2d bd d8 bd 15 1a 1a ba d0 fc 23 bd
       -0.07320612 -0.105829574 -0.00058785203 -0.040036023
000020 ce 0e 37 bd fb 88 87 3c 0b 90 76 bb 4a 55 88 3c
       -0.044691853 0.01654481 -0.0037622477 0.016642231
000030 30 59 01 bd cb 9d 5f bd 92 3e 21 bb 92 c2 a2 bc
       -0.031579196 -0.054593842 -0.0024603945 -0.019868169
000040 6f d4 8d bd 66 4b 88 bc 4b 69 f2 bc 9c eb 61 bc
       -0.06925284 -0.016637515 -0.029591223 -0.013789084
000050 d5 f6 ff 3c fd 28 be bc 16 8b 3b bd c1 bb 99 bc
       0.031245628 -0.023212904 -0.04578694 -0.018766286
000060 67 47 b0 bd 3f d4 4d bd b3 c0 35 bd 58 70 f6 bc
       -0.08607369 -0.05025124 -0.044373225 -0.030082867
000070 2d d8 da bc cd 12 32 3c b7 a3 1a 3d 78 1e 0a 3d
       -0.026714409 0.01086874 0.037753787 0.033720464
000080 c9 04 6e 3c 96 98 9c bc 92 c0 f8 bc 8b 78 09 3d
       0.014527508 -0.019115727 -0.030365262 0.033562224
000090 2c 5c 41 bd 47 49 3a bd 3b 50 38 3b 01 b7 8d 3d
       -0.047207043 -0.04548004 0.0028123993 0.06919671
0000a0 04 ea e3 3c 04 de 1a 3c aa 92 1d bc 52 17 6d 3d
       0.027821548 0.009452347 -0.009617487 0.057883568
0000b0 bb 9a 34 3b f0 1b 3e bc 90 68 b7 bc 27 65 60 3c
       0.0027558047 -0.0116033405 -0.022388726 0.013695992
0000c0 d6 15 51 bd 2a a8 ca 3c 3a 0f a4 bc b4 16 23 bd
       -0.051046215 0.02473839 -0.020026792 -0.039816573
0000d0 b6 c3 05 bd e3 3d b6 3c 7d 7e 05 3d 38 72 4a bb
       -0.032657348 0.022246307 0.03259133 -0.0030890834
0000e0 d2 ee ec 3b c2 1a 7d bc bd 44 83 3c 56 02 f7 3c
       0.007230618 -0.015448274 0.016023988 0.030152481
0000f0 ce bc 7b 3b 28 f1 59 3b b9 21 e8 3c 99 21 ee bb
       0.0038412097 0.0033255313 0.028336393 -0.0072671887
000100 8b f8 07 3d 7b e5 38 bd 0b f1 32 bd 46 9e 87 bc
       0.033196013 -0.045140725 -0.043686908 -0.016554963
000110 50 3e 67 3d 7e 7b 1b bd 27 52 87 3c 58 7d a1 3b
       0.05645591 -0.03795957 0.016518665 0.004928272
000120 82 17 00 bc 92 9f 56 3d bb 8c a4 bc d3 d3 3d bc
       -0.007818105 0.05239827 -0.020086637 -0.011586147
000130 f6 6a b4 bd f8 41 16 bc 6d 5d 6c bb 8b 90 52 3b
       -0.08809464 -0.009171002 -0.0036066428 0.0032129611
000140 c1 7e 2a bb e3 2b 23 3d db bb 42 bd aa 70 2f bd
       -0.0026015493 0.039836776 -0.047542434 -0.042832054
000150 83 5d a7 bb 73 67 91 bc 6c c5 fd 3c 7e f6 3e bd
       -0.005107583 -0.017749524 0.030977927 -0.046621792
000160 61 2f 35 3d e3 24 81 bd cd d0 64 bb 11 6b 03 bc
       0.044234637 -0.06305864 -0.0034914494 -0.008021132
000170 71 b3 c8 bb af 62 83 bd 13 08 ac 3c e9 db 3b 3d
       -0.0061249067 -0.06415307 0.020999944 0.04586402
000180 c6 75 cd 3c 57 0e 10 3d 96 b9 4e 3d 56 86 14 bc
       0.025080573 0.035169926 0.050469957 -0.009065231
000190 da 03 55 bd e1 c2 89 3c a4 9a 5f 3b b4 7e 97 bc
       -0.052005626 0.016816558 0.0034119273 -0.018493034
0001a0 fe 10 9b bc 9c 6d 1f 3d a9 52 6c 3d 85 42 5f bc
       -0.018929001 0.03892289 0.05769602 -0.013626699
0001b0 fa 4a a2 bc 7f 4a 99 bb db 19 22 bd 32 88 96 3c
       -0.019811142 -0.00467807 -0.03957544 0.01837549
0001c0 39 87 3e 3c 36 e4 a1 3c 75 ba 1f 3d 89 90 0d bc
       0.011628919 0.01976214 0.03899618 -0.008640417
0001d0 86 4a 08 bd 79 57 80 bb e0 0b 06 3d fa d3 86 3c
       -0.033274196 -0.0039166776 0.03272617 0.0164585
0001e0 94 f2 3f bd f5 88 f0 bc 32 ee 9c bc cd 36 0f bd
       -0.0468622 -0.029362181 -0.01915655 -0.03496437
0001f0 72 62 8b 3c e3 60 91 3c 7c 46 06 bd 9e de 0b 3c
       0.017014716 0.017746395 -0.032782063 0.008536963
000200 9a ea 6d bd 98 49 20 bd 43 c0 aa 3d 57 88 d0 39
       -0.05808506 -0.039132684 0.08337452 0.00039774433
000210 9d c3 27 3d 31 77 42 3d e5 c8 90 3b 0c 83 e7 bc
       0.040958036 0.04747695 0.0044184797 -0.02826073
000220 bb 99 40 bd af b6 25 3d 8a 2c 05 bd cc d7 e1 bd
       -0.04702161 0.040457424 -0.03251318 -0.11027488
000230 b1 67 4e bc ce 22 c7 3c e8 ee a7 bd c6 c1 c3 bc
       -0.012597964 0.024308588 -0.081998646 -0.02389611
000240 e5 a4 ac 3b ba b4 4e bd cd 9a e4 3c 6e 32 d8 bb
       0.0052686804 -0.050465323 0.027905846 -0.0065978086
000250 5a 2c b5 3c e9 27 9d bb 29 5e a7 3d 2a 80 7b 3b
       0.022115875 -0.0047960174 0.081722565 0.0038375952
000260 4e 8e 0a 3c fe 92 eb 3c f3 69 29 bd 3d c6 34 bc
       0.00845678 0.028756615 -0.041360807 -0.011033592
000270 2c 1d 56 3d 8c 5d 20 bd 1b 0e 2d 3c 80 f8 8b 3c
       0.052273914 -0.039151713 0.010562445 0.017086267
000280 b4 d2 ae 3c 02 b7 bc 3c c6 13 99 3d d9 90 41 3c
       0.021340705 0.023036484 0.074744746 0.0118143195
000290 db 58 85 3d 01 28 2b 3d bd 01 62 bc b9 e3 5f 3d
       0.065110885 0.041786198 -0.01379436 0.054660533
0002a0 81 74 6c bd 54 35 66 3d d5 cc 96 3d 60 a4 02 3d
       -0.057728294 0.0562032 0.07363287 0.03189504
0002b0 2d 16 15 bc 16 b6 49 bc e5 ba 81 bd 0d 06 8a bc
       -0.009099525 -0.012311479 -0.063344754 -0.016848588
0002c0 8d 87 aa 3b 60 62 64 bb 9d 07 dd bc f8 59 33 bd
       0.005204147 -0.0034848675 -0.02698117 -0.043786973
0002d0 b5 f8 af 3d 17 cf e8 3d 9a b0 f0 3c a8 51 70 bd
       0.08592359 0.11367624 0.029381085 -0.058671623
0002e0 5e 2d 3a 3d ac 9f a9 3c 5a e0 da 3c 84 ac 02 3d
       0.04545342 0.02070602 0.026718307 0.031902805
0002f0 0b f7 8a bc b7 5a 85 bc b0 4f 62 3d 00 3e 42 bc
       -0.016963502 -0.016278608 0.055251777 -0.011855602
000300 56 68 0c bd 50 11 cb bd 37 48 04 bd 4e 2f 16 3d
       -0.03427919 -0.099154115 -0.032295432 0.036666207
000310 4b 0a 8a 3c ca b9 82 3c 84 52 c5 bc 38 8e 26 bd
       0.016850611 0.015957732 -0.024087198 -0.040662974
000320 52 4a 85 bd 58 e9 c9 3c d8 f3 fd 3b 3f a5 f5 bb
       -0.06508316 0.0246474 0.0077500157 -0.0074965055
000330 05 9b 8b bd 68 7d b4 3d 9b 7a f1 3c 84 5d 14 bd
       -0.06816677 0.08812982 0.029477408 -0.036221996
000340 6c 49 ae 3d 1e 08 ed ba 1f 6c 96 bd 73 46 1d 3c
       0.08510098 -0.0018084084 -0.07344841 0.009599316
000350 88 6c 63 bd f9 48 3e bc a1 b1 85 3c b3 31 aa bd
       -0.055523425 -0.011614078 0.016320052 -0.083102606
000360 f5 88 8c bc 69 05 8e ba 36 40 4f bd 76 b5 c6 3b
       -0.01715515 -0.0010835353 -0.050598346 0.0060641123
000370 8f c3 86 3b ba 61 ba bd fd 2f 7a bd c3 14 02 bb
       0.004112668 -0.09100671 -0.06108092 -0.00198488
000380 1f d7 23 3d a2 53 0e 3c 90 e8 84 3c 4e e2 81 3c
       0.040000077 0.008686932 0.016224176 0.01585498
000390 92 dc 44 bd 9c 67 f0 3a 89 4d 24 bc 39 4b 56 bc
       -0.048061915 0.0018341425 -0.010028251 -0.013079458
0003a0 15 60 50 3d 5f d9 ab bc ed 3d 05 3d 90 d8 8d 3d
       0.05087288 -0.020977674 0.03252976 0.06926072
0003b0 c3 21 49 3c a8 a5 83 bc b0 2f e0 3b 71 ea 19 bd
       0.012276116 -0.016070202 0.0068416223 -0.037577096
0003c0 0b 50 00 bd 33 5a 98 bb 5c e2 57 bd f9 8e ae 3c
       -0.031326335 -0.0046494245 -0.052706107 0.021308409
0003d0 98 22 c3 bc 7c ff 3d 3d 56 0d 97 3d 68 21 17 3d
       -0.023820207 0.046386227 0.073755905 0.036897093
0003e0 51 0a 26 bc be f8 3f 3c 1c 92 c3 bc 1e bb 03 3d
       -0.010134296 0.01171702 -0.023873381 0.03216087
0003f0 aa 74 02 bd 7f ae b3 bc a2 62 aa b7 40 23 27 3d
       -0.03184954 -0.021933792 -2.0311509e-05 0.0408051

stage1.block1.bn2.weight f4 [16]
000000 af e6 ab 3e 6e 63 bf 3e 5d ef ba 3e b0 af af 3e
       0.33574435 0.37380546 0.36510745 0.34313726
000010 da 3a 97 3e 54 55 c3 3e 93 5d d2 3e e1 6b a5 3e
       0.29537088 0.38151038 0.41087016 0.32308868
000020 08 82 90 3e 43 d0 c5 3e e6 39 a7 3e 27 f9 ac 3e
       0.28224206 0.38635454 0.3266136 0.33783838
000030 59 e5 ce 3e 73 77 a6 3e 40 fd b3 3e 80 e1 9d 3e
       0.40409353 0.32513008 0.35154152 0.30836105

stage1.block1.bn2.bias f4 [16]
000000 e4 41 a1 3c b4 b5 8d 3d 35 ac 84 bc 06 df 20 3d
       0.01968474 0.06919423 -0.016195396 0.03927519
000010 96 d8 af bc c7 05 6f 3c 6b 00 5d 3c 6f 2d 93 3c
       -0.02146558 0.01458878 0.013488869 0.017966
000020 e0 54 06 bd 1d 30 d8 b8 c5 1c 43 3c d7 f1 22 3d
       -0.032795787 -0.000103086444 0.011908715 0.039781418
000030 93 a5 73 3d c7 86 1f 3c 0b c3 c1 bc 1e ec 15 bd
       0.059484076 0.009736723 -0.023652574 -0.036602132

stage1.block1.bn2.running_mean f4 [16]
000000 69 7b e8 bd c7 c2 18 3d eb 6d 32 3e 59 d6 27 3d
       -0.113516636 0.03729513 0.17424743 0.040975902
000010 7b dc 14 3d f7 28 75 3c b3 67 ee 3c 42 fa 5e 3d
       0.03634308 0.01496338 0.029102182 0.054437883
000020 4d c0 00 3d b0 16 25 3b 76 89 f2 3b 7b 4c be bd
       0.031433392 0.0025190525 0.0074016405 -0.09291931
000030 65 f5 2d be ef 61 dc 3c 4e 1d 4c 3d 56 00 9f 3d
       -0.16988142 0.026902167 0.049832635 0.07763736

stage1.block1.bn2.running_var f4 [16]
000000 46 26 53 3c db 88 2f 3c a3 18 17 3c e2 12 bd 3b
       0.012887543 0.010713781 0.009222182 0.0057700733
000010 69 d2 11 3c 8e 2a 88 3b c7 f3 33 3c a3 27 09 3c
       0.008900263 0.0041554635 0.010983414 0.008371267
000020 ca 10 00 3c bc 19 12 3c 1f 4f 0c 3c db fc 42 3c
       0.007816503 0.008917268 0.008563786 0.011901106
000030 ae a0 73 3c 1e 4a 2a 3c ba 34 12 3c ab ee 0b 3c
       0.014869852 0.0103936475 0.008923704 0.00854079

stage1.block1.conv2.weight f4 [16, 16, 3, 3]
000000 a6 ac 1c bd 42 07 f4 bc 58 95 02 bc a0 f4 1d 3b
       -0.038250588 -0.029788617 -0.007970177 0.0024102107
000010 14 d1 a7 3b 29 80 8c bd 27 f7 e2 3c 48 db 41 bc
       0.0051213596 -0.06860382 0.027705742 -0.011832066
000020 56 d4 ed 3c 7f 92 5b 3a 3a 1f 53 3d fe 3b 46 3d
       0.029031914 0.00083760166 0.05154345 0.048397057
000030 1e 3a 92 bb 2a 42 20 3d ef a3 cc 3c 52 47 8f bb
       -0.0044624945 0.0391256 0.024980513 -0.0043725157
000040 96 f6 47 bb 10 49 67 3d 98 4b 12 3c e0 fe 41 3d
       -0.0030511967 0.056466162 0.008929156 0.04736221
000050 16 d3 12 3c e1 a1 04 3d 6b bb d0 3c 8b 79 1e 3d
       0.00896146 0.032380942 0.025479993 0.03869013
000060 11 01 62 3d af 1a ac bc af a9 7c 3d b7 99 30 bc
       0.0551768 -0.021008817 0.06168526 -0.010778836
000070 a2 fa 4d bd d0 94 52 3d bf 7a c2 bb 7e a1 50 3d
       -0.05028785 0.05141145 -0.0059350426 0.05093526
000080 0b 89 85 3c 09 27 3b 3d 1f f1 59 bd b6 9c 5a bd
       0.016300699 0.045691524 -0.053208467 -0.053372107
000090 78 9a 95 3c e3 25 9b bb 72 9c d3 bc 52 cb 5a bc
       0.018262133 -0.004734741 -0.025831435 -0.013354139
0000a0 7f a5 6f bd 76 90 91 3d 79 6d 01 bd e3 ef 69 bc
       -0.05850744 0.07107632 -0.031598542 -0.014278385
0000b0 eb b4 16 3d 35 fb db bc 21 2f a9 bc a4 a2 86 3d
       0.03679363 -0.026853183 -0.020652356 0.0657399
0000c0 c3 9c f8 bd 7f 0c c1 bc 12 d6 fe ba d7 a7 46 bc
       -0.12139275 -0.023565529 -0.001944246 -0.012124977
0000d0 f1 0f 0d 3d 08 53 04 3d f4 51 6b bd a5 95 41 3d
       0.03443903 0.032305747 -0.057451203 0.047261853
0000e0 91 b5 7f bd 5b 07 7f 3b b2 18 21 3d ae 08 9f bd
       -0.062429015 0.0038914296 0.039330192 -0.077653274
0000f0 b7 79 07 3d b4 b8 f0 bb 1f f4 d8 3c 9b dc 1c bd
       0.03307506 -0.007346237 0.026483594 -0.038296323
000100 50 ec 6c bd 64 0f 71 bd 33 07 75 3d bc 26 17 bd
       -0.057842553 -0.05885257 0.05982132 -0.036902174
000110 f1 30 9f 3c 86 47 ea ba f5 17 a2 3b 43 59 2f bd
       0.019432517 -0.0017874099 0.0049467036 -0.042809736
000120 27 8f 63 3d da 98 f6 3c 82 dc d6 bb 05 6b 96 bc
       0.055556443 0.030102182 -0.0065570483 -0.018361578
000130 e9 69 2f bd 38 b3 04 bd 6b c6 ec 3c c6 d7 a4 3d
       -0.042825613 -0.03239748 0.028903207 0.08048968
000140 2f 33 95 3c 42 ec a9 bc a2 d7 8e 3d 3a ec 52 3d
       0.018212883 -0.02074254 0.069747224 0.051494814
000150 0f 15 06 bc f6 3a 0b bd 5c 88 4d bc 33 54 2d bc
       -0.008183732 -0.033991776 -0.012544718 -0.010579157
000160 7f 25 d1 bb 81 32 9c bc 78 d9 52 bd 7f 45 90 bd
       -0.0063826437 -0.01906705 -0.051476926 -0.07044505
000170 9c 89 fc 3c 2b 5c d3 bc 2a 03 ad bd 20 23 ae bc
       0.030827336 -0.025800785 -0.08447869 -0.021256983
000180 58 9a 00 3d bd 05 8e bd ed 86 d7 bc 29 83 20 3d
       0.031397194 -0.06934688 -0.026309455 0.039187584
000190 6f 72 f4 3b 27 aa 3d 3d 45 5a 1c bd 3c 81 9a bd
       0.0074599306 0.046304848 -0.038172025 -0.07544181
0001a0 15 69 4a bd 5a c1 0f 3d 0f 1d 85 bb e9 65 01 3d
       -0.04941662 0.035096504 -0.004062302 0.03159133
0001b0 5c 0e 96 3d 79 cd d2 bb 28 96 9b ba 45 ae cd 3c
       0.073269576 -0.0064331857 -0.0011870312 0.025107512
0001c0 56 36 74 bd a2 0b 43 bd 41 3f 9a bd 57 c7 a7 ba
       -0.05962213 -0.047618516 -0.07531596 -0.0012800497
0001d0 15 1c 17 3c df 17 d6 3c d5 c9 93 b9 84 3f c6 bc
       0.009223004 0.02613443 -0.00028188401 -0.024200208
0001e0 69 d0 55 bd 83 2b ec bc 5c 8b c2 bc e8 fd 10 bc
       -0.05220071 -0.028829342 -0.023748092 -0.0088495985
0001f0 f4 db d1 3d 01 3f 19 3d ae 4f 6c 3d 44 66 23 3b
       0.10247031 0.0374136 0.057693176 0.0024932781
000200 1d c2 26 3c f7 da 5f 3c d3 a6 a1 3c 64 3a 30 bd
       0.010178116 0.013663045 0.019732868 -0.043024436
000210 60 b2 8f 3b 66 f2 01 bd 7f 0c 83 bd dc fb ad bc
       0.0043852776 -0.03172531 -0.06398868 -0.02123826
000220 b5 c6 0d bc 9a 2d 8a 3b 89 05 e3 3c 33 05 50 bc
       -0.0086533325 0.004216862 0.0277126 -0.012696552
000230 aa 13 85 3d fc 9b 5e bd 57 32 95 bc c6 07 5e 3d
       0.06497891 -0.054347977 -0.01821248 0.054206632
000240 a5 9a a1 bb 54 aa 3a 3d cd 09 d0 bc b9 3c 1e 3c
       -0.004931765 0.045572594 -0.025395298 0.009658032
000250 16 5f bc bc 79 15 39 3d 40 f3 ef 3c 9c ce 79 bc
       -0.02299456 0.045186494 0.029290795 -0.015247013
000260 3f 58 9b 3b 4d 5d db 3c 29 60 3d 3b b8 ec 99 bb
       0.0047407444 0.026777888 0.0028896427 -0.0046974085
000270 17 e5 92 bd 30 e8 97 bd e8 e0 4e bd f1 7a 3f 3d
       -0.07172602 -0.07417333 -0.050507456 0.046748105
000280 b4 5d a9 3d fa d9 b1 3d 62 1b f2 bc 5a 3a 84 3d
       0.082698256 0.08684154 -0.029554073 0.06456442
000290 2b 8f e6 bc 2c 9f 5e bc 7d f9 81 3d da fb 4f bc
       -0.02814444 -0.013587754 0.06346414 -0.012694323
0002a0 b7 d8 99 bd df 7a 60 3d 6f aa 99 3d 63 e3 a2 bc
       -0.07512038 0.05480468 0.07503211 -0.019883817
0002b0 0e fd af bc c1 9e ce 3a 8b c1 77 bd bd 67 3d 3d
       -0.02148297 0.0015763865 -0.06048731 0.04624151
0002c0 0b 9b fe 3c 13 ba d7 bb 10 8d 2a bd 0e 28 4d bd
       0.03107979 -0.006583461 -0.041638434 -0.050087027
0002d0 ff cf 22 bd 4b f4 99 bd 04 7b 58 3c de ac 03 bd
       -0.03974914 -0.07517298 0.013212923 -0.03214728
0002e0 b3 56 ef 3c 7e ec a2 bd 12 e8 14 3c 61 6a ed 3a
       0.029216146 -0.079552636 0.009088533 0.0018113368
0002f0 a5 ab 89 3d ee b2 4b bd b4 d0 af bc 49 dc 7e ba
       0.06722192 -0.049731188 -0.021461822 -0.0009722156
000300 73 fe 7c bc 82 8a 0d 3d 1e f5 1e bd 28 b8 23 bd
       -0.015441525 0.03455592 -0.03880798 -0.039970547
000310 ba e3 1f bc 6c 95 7e bd b5 e2 19 3d fe 18 c9 3c
       -0.009758884 -0.06215422 0.03756972 0.02454805
000320 9d 0b ef bc 12 1c 95 3d 28 41 a3 bc 55 71 f2 bc
       -0.029180342 0.072807446 -0.01992853 -0.029595057
000330 83 f2 3c 3e f5 61 84 3d 2b 4d 50 3c 47 97 8b 3d
       0.18451886 0.06463996 0.012713711 0.06815963
000340 7c 20 6f 3c 53 f0 02 bd a0 14 8d bc 86 29 a1 3d
       0.014595147 -0.031967472 -0.017221749 0.07869248
000350 b5 d4 a6 bd 65 59 02 bd 0e 2f ae 3c 63 0c 32 bd
       -0.081460394 -0.031823535 0.021262672 -0.043468844
000360 69 63 7b 3c 16 f4 3f 3d 32 bb 89 bd 7e d6 b9 bc
       0.015343525 0.046863638 -0.06725158 -0.022685286
000370 a0 cf 12 bc 41 30 7f 3c 62 14 16 bd ac a8 35 3c
       -0.0089606345 0.0155754695 -0.036640532 0.011087578
000380 a0 9d 2c 3d 69 5c 6d bd 50 24 8f bd 04 05 89 3d
       0.04214251 -0.057949457 -0.06989348 0.0669041
000390 7a ae 62 bd 72 4f 64 bd 32 48 aa 3d 8f b9 b6 bd
       -0.055342175 -0.055739827 0.083145514 -0.08922111
0003a0 90 cb 5e bd c8 0b 6d 3d 7d 45 78 3c 6c 3b ac bd
       -0.05439335 0.057872564 0.015153286 -0.08409771
0003b0 f0 b7 37 3b 87 f7 8e bc a0 4b 51 3c fe 50 60 bc
       0.002803322 -0.017452015 0.012774378 -0.013691185
0003c0 0d c6 bd bb 4d 74 8c 3d de 25 43 bc d9 a4 b4 bd
       -0.0057914318 0.0685812 -0.011910884 -0.08820505
0003d0 4f 0d b0 bc 88 4d 55 bd ee 47 2f 3d 05 f3 6b bd
       -0.021490721 -0.052075893 0.042793207 -0.05760481
0003e0 f9 a7 5e bd 1b b4 93 3c 9c cc 5e bc f0 d2 b9 3b
       -0.05435941 0.018030217 -0.013598587 0.0056708977
0003f0 47 7a 77 3c b9 b8 1e 3d 83 b9 36 bd 8c 7e 66 3d
       0.015104837 0.038750384 -0.04461051 0.05627303

stage2.block1.bn1.weight f4 [16]
000000 6b cf 8c 3e 3f c0 9e 3e b8 36 99 3e d2 d0 90 3e
       0.27501997 0.31006047 0.2992456 0.28284317
000010 06 63 b0 3e b4 a5 99 3e cd c7 94 3e bc 2d 8e 3e
       0.3445055 0.30009234 0.29058686 0.27769268
000020 c1 56 87 3e 85 f7 8b 3e 88 a3 96 3e 5b b5 a6 3e
       0.26433375 0.2733728 0.2942164 0.32560238
000030 5d 25 99 3e 6d e1 85 3e 9e 0e 9b 3e f4 ac 85 3e
       0.29911318 0.2614855 0.3028459 0.26108515

stage2.block1.bn1.bias f4 [16]
000000 e5 c0 62 3b 27 7b 1f bd 7c 9e 54 3b 27 bc a6 bc
       0.0034599837 -0.038935807 0.0032443097 -0.02035339
000010 f2 d8 a9 bc 0b 30 06 3d 59 5e a8 3b 24 27 38 3c
       -0.02073333 0.03276066 0.0051382002 0.011239801
000020 ec 6e 90 bd a6 ff 84 3b 18 2a ff bc da fa 6b 3c
       -0.07052407 0.004058796 -0.031148002 0.014403069
000030 a1 35 75 3c 38 ad 1a bd 05 7f 95 3b f3 96 d1 3c
       0.014966399 -0.03776285 0.004562261 0.025584674

stage2.block1.bn1.running_mean f4 [16]
000000 de ff 82 3d 8d 17 5d 3d 2e 8d ad 3d bd 2c 0d 3e
       0.06396459 0.053977538 0.084741935 0.13786598
000010 b9 42 6b 3e fc a3 22 3d 01 d4 e9 3c 77 85 90 3c
       0.22974671 0.03970717 0.028543474 0.017641766
000020 a8 7c 86 3e d7 35 1c 3d 74 1c a2 3e 78 be d8 bd
       0.2626698 0.038137283 0.31662333 -0.10583204
000030 61 56 67 3d c6 0f 27 3e 43 d5 7e 3e 17 0a a3 3c
       0.05647886 0.16314611 0.2488604 0.019902272

stage2.block1.bn1.running_var f4 [16]
000000 5e c0 3e 3d a9 de d6 3c 13 79 89 3d 50 48 f2 3c
       0.046570174 0.02622922 0.06712546 0.029575497
000010 38 d0 45 3d 46 f1 77 3d 99 32 30 3d ca 25 cd 3c
       0.048294276 0.06053283 0.043017004 0.025042433
000020 f6 03 1b 3d 2c 10 25 3d 64 47 e2 3c 9a 3d a7 3c
       0.037845574 0.040298626 0.027621932 0.020415116
000030 9a ca 44 3d c1 7b dd 3c 25 88 23 3d 02 5e 68 3d
       0.04804478 0.02703655 0.03992476 0.056730278

stage2.block1.conv1.weight f4 [32, 16, 3, 3]
000000 ad d4 86 3c 5e d7 3e 3c eb 4e 88 bc e2 35 30 3d
       0.016458834 0.011648027 -0.016639194 0.043020137
000010 0f 82 97 3b ec 41 85 3c 6f 07 8c 3c 2d 3d 46 3d
       0.0046236585 0.016266786 0.017093388 0.048398186
000020 cd fb 9b ba 77 32 fa 3c 4e 25 85 3c a8 f8 c2 bc
       -0.0011900604 0.030541642 0.01625314 -0.02380021
000030 f8 0f c0 3b f4 2c f5 3c b1 fb 7a bd 6c 14 66 bc
       0.0058612786 0.029928662 -0.061275188 -0.014042955
000040 9d 54 15 bd a9 c9 bb bc 5e 85 94 bc 35 d3 c8 bc
       -0.036457647 -0.022923307 -0.01813 -0.024514774
000050 75 dd 55 bb b3 56 6f bc 76 39 be 3c e9 11 32 3d
       -0.003263322 -0.014608073 0.023220759 0.04347411
000060 ae 63 e1 3c 97 cc 00 bd 93 67 ce bc 39 21 b7 3c
       0.027513351 -0.031445112 -0.025195872 0.022354709
000070 36 98 32 3d 77 a1 a7 bb ef 51 1c 3d 7a 85 c8 3b
       0.04360219 -0.0051156837 0.038164075 0.0061194273
000080 64 e8 01 bd 2a d6 29 3d 97 26 25 bd d8 51 6d bd
       -0.031715766 0.04146401 -0.040320005 -0.05793938
000090 fc 5d 79 3b 53 3c a6 3c 71 fd 03 3d 21 43 71 bd
       0.0038050404 0.020292437 0.032224122 -0.05890191
0000a0 61 03 04 3c f0 47 12 3d cc 49 5f bd 0f 5c 05 3d
       0.008057446 0.035713136 -0.054513738 0.032558497
0000b0 f7 c1 d6 3c a2 63 5d bc 88 5e 20 3d 03 93 97 bc
       0.026215537 -0.013512524 0.039152652 -0.018502718
0000c0 1b eb 36 bc 78 d8 01 3d 78 87 46 bd 3c 98 9d bd
       -0.011164452 0.03170058 -0.048469037 -0.07695052
0000d0 55 7e 61 bc 27 32 d5 bc 96 43 7d bd 79 78 56 bd
       -0.01376303 -0.026024891 -0.061832033 -0.052360985
0000e0 bc 4d 18 ba 85 b1 22 bd de 6a 6e bc 8c ae c8 3c
       -0.0005809923 -0.039720077 -0.014551846 0.024497293
0000f0 00 65 28 bd d1 89 b2 bd 5d 4f 41 bc ea 77 e5 bb
       -0.041111946 -0.08717693 -0.011798707 -0.0070028203
000100 ea 19 22 bd ac b4 8d bc 9f 6e 5c bd 5c 2d 02 bc
       -0.039575495 -0.017298065 -0.053816434 -0.007945385
000110 d0 29 2f bb 8c 22 c5 3b 3b 73 1b 3c 3f ee bf bc
       -0.0026727803 0.006016081 0.009487922 -0.023429034
000120 78 0b 2a bb 78 cd 64 bc cb 81 b5 bb 88 4d 20 bd
       -0.0025946777 -0.013965003 -0.005539154 -0.03913644
000130 d4 5d 6e bc c1 fd b9 bc b1 3f 2a bd 3b 28 cc bc
       -0.014548738 -0.022704007 -0.041564647 -0.024921527
000140 e3 e6 72 3c bf 21 e6 3c 23 e5 83 bb 50 57 be 3c
       0.0148255555 0.028092263 -0.004025118 0.023234993
000150 9e 34 e0 3c 73 31 d1 3b 3c 7b 84 3d 67 f4 c2 3b
       0.02736884 0.0063840686 0.064688176 0.005949545
000160 34 80 10 bc d1 9f 14 3d 8a 59 49 3c d9 71 4e bc
       -0.0088196285 0.036285225 0.012289414 -0.012600386
000170 09 67 91 bc 55 4f 21 3c d9 97 9f 3c aa b9 8f bc
       -0.017749326 0.009845574 0.019481586 -0.017544586
000180 6b b6 b9 3c 9f 9c 13 3d 8a 5f d4 bc f5 08 53 bd
       0.022669991 0.036038037 -0.025924463 -0.051522214
000190 9e 71 9c bb 24 e3 a0 bd 1a 8a e2 bc 95 97 0e bd
       -0.0047742864 -0.07855824 -0.027653743 -0.03481253
0001a0 99 aa 8d 3c f7 e0 87 bc 35 ff 37 bc 92 fa 46 3c
       0.017293261 -0.016586764 -0.01123028 0.012144702
0001b0 13 18 af 3c 4a 07 30 bc 50 38 2b 3c 4f 60 74 3c
       0.021373784 -0.010743925 0.010450438 0.01491554
0001c0 5f 54 78 3d 21 64 09 3d c5 f8 40 3d 91 b0 3c 3c
       0.060627338 0.033542756 0.047112245 0.011516706
0001d0 39 d2 d7 bc c7 56 72 3b 13 d8 cd bc 2c de 49 3a
       -0.02634536 0.0036977993 -0.025127446 0.00077006477
0001e0 a0 11 b5 bd 53 0d 2d 3d 7a 5f 04 3c 7b 42 81 bd
       -0.08841252 0.042249035 0.008079404 -0.06311508
0001f0 46 84 c3 3c d6 07 86 3d 2c a4 d8 bc c5 50 85 bd
       0.023866784 0.06544463 -0.02644547 -0.06509546
000200 7f cb a0 bd 8e e4 d2 3b de 64 3c bb f2 c8 72 3c
       -0.07851314 0.0064359372 -0.0028746645 0.014818417
000210 f5 24 7c 3c 68 45 85 3d ce 1a 3a 3b 72 54 c6 3c
       0.015389671 0.06507379 0.0028397324 0.024210189
000220 08 82 99 bc 69 ab 17 3d 6d b6 f4 bc 3c c0 0c bc
       -0.018738762 0.037028704 -0.029872144 -0.008590754
000230 7e 6b de bc 2a 60 2b bd 80 ef af 3c d3 67 8b 3c
       -0.027150866 -0.041839756 0.021476507 0.01701728
000240 bc 85 69 3a ba 5c 0a 3d 10 5b 0e 3c 60 46 e0 3c
       0.00089081726 0.033779837 0.008688703 0.027377307
000250 1d 76 38 bd 58 52 31 bc c4 c2 c1 bb 70 92 3e bd
       -0.045034517 -0.010822855 -0.0059131104 -0.046526372
000260 18 13 03 3c 15 a3 e7 bc e3 a0 9a 3c 83 42 0b 3b
       0.008000158 -0.028276006 0.018875545 0.002124936
000270 d0 18 0f 3b 30 98 fd bc 13 72 45 bc d5 fe 13 bd
       0.0021834858 -0.030956358 -0.012051123 -0.0361317
000280 2a 6e ff bc 27 78 14 3b 37 bf ed bc 9e 57 08 3c
       -0.03118046 0.0022654624 -0.029021842 0.008321671
000290 6d 1e ab ba e7 90 97 3c a6 be 00 3d e6 c0 e6 3c
       -0.0013055332 0.018501712 0.031431817 0.028168153
0002a0 59 34 c5 3c 53 e5 45 3d ca 60 0b 3d ad 86 0c bd
       0.024072813 0.048314404 0.034027852 -0.034308124
0002b0 c7 da 15 bd 15 08 09 3c f3 60 72 3c 4c 09 11 3d
       -0.036585595 0.008363743 0.014793622 0.035409257
0002c0 08 51 fa bb 4c f4 03 bb c1 0c 0b 3c b2 01 25 3d
       -0.007639054 -0.0020134626 0.0084869275 0.04028482
0002d0 c4 9d 3d bc d6 b7 4e bc 3b ec 8c 3c e7 11 cb 3a
       -0.011573259 -0.012617072 0.017202487 0.0015493006
0002e0 3b 1d ec 3c e7 29 5d 3c 85 3c 9c bc f2 bb 04 3d
       0.028822532 0.01349876 -0.019071827 0.0324058
0002f0 4a 81 af 3c 63 51 0c bd 56 9e df bc fb 6f 38 3d
       0.021423955 -0.034257304 -0.02729718 0.045028668
000300 b3 30 03 3c fc 58 6e bd 76 ce 9a 3c 48 98 47 bd
       0.008007216 -0.05819033 0.018897276 -0.04872921
000310 58 3c 94 3c d2 82 42 bc a9 ea 8b 3c ce be b7 bc
       0.01809518 -0.01187201 0.017079668 -0.02242985
000320 79 29 60 bc 03 5e 22 bd cb 8d 7c 3b 04 4c c0 b9
       -0.013681763 -0.039640438 0.0038536664 -0.0003667773
000330 6a c8 f8 3b 6f 1c 9a bc 64 87 ae 3c 1c d9 8a bd
       0.0075922506 -0.018812386 0.021304794 -0.067796916
000340 a9 19 13 3c f7 1b db bc ab 89 e3 b8 a5 91 31 bd
       0.008978286 -0.026746733 -0.00010849846 -0.043351788
000350 94 f8 b8 3c e8 93 89 bd 2c 4f 90 bc 88 9c 80 3c
       0.022579469 -0.06717664 -0.017615877 0.01569964
000360 b2 94 2a 3c 27 8a 62 bd e5 c0 bd bc c6 67 1f bc
       0.010411428 -0.055307534 -0.023163268 -0.009729331
000370 09 88 03 bc b9 0c 09 3d 29 bc 01 3b 93 fd c7 bc
       -0.008028039 0.0334594 0.001979599 -0.024412906
000380 41 71 27 3c 3e b7 b2 bd f8 67 0c bb f5 71 5f 3c
       0.010219873 -0.08726357 -0.0021424275 0.013638009
000390 28 0f f4 3c dc 7d f9 ba d8 41 27 3d 84 03 c5 3b
       0.029792383 -0.0019034701 0.040834278 0.006012382
0003a0 df e6 5c bc bb 83 d0 ba fe 6f 5f 3b f0 79 2f 3c
       -0.013482778 -0.0015908399 0.0034093852 0.0107102245
0003b0 99 5e 19 3d 5b 19 4e 3c ef bf 3b 3d 3c 65 ac bc
       0.03744373 0.012579287 0.04583734 -0.021044366
0003c0 40 59 7e 3d 75 93 ab 3d db ab 0f 3d fe e1 35 3a
       0.062096834 0.083777346 0.035076004 0.00069382775
0003d0 1a c2 5b bd c6 ee 18 3c 44 b9 37 bc 49 06 54 bb
       -0.053651907 0.009334272 -0.011213604 -0.003235238
0003e0 77 21 0d 3d b2 82 d7 3b 74 2e 56 bc 7d f1 1a 3c
       0.034455743 0.0065768594 -0.013072599 0.009456989
0003f0 61 13 bf 3c 81 39 24 bd 9b 85 03 3c 89 81 8d bc
       0.02332467 -0.040093902 0.0080274595 -0.017273681

stage2.block1.bn2.weight f4 [32]
000000 b4 27 a9 3e 1d 3d 93 3e 94 e8 9b 3e 2c 88 96 3e
       0.33038104 0.28757563 0.3045088 0.29400766
000010 64 8b a5 3e 36 09 9b 3e 0a 52 94 3e 51 54 ab 3e
       0.3233291 0.30280465 0.2896884 0.33462766
000020 40 83 ac 3e 57 b9 a6 3e 14 bb a9 3e 8d df a2 3e
       0.33693886 0.32563278 0.33150542 0.3181118
000030 a4 22 a7 3e 5d f7 a6 3e 33 74 a0 3e 1a 89 a1 3e
       0.32643616 0.32610598 0.31338653 0.31549913
000040 35 ff 99 3e 75 51 ae 3e d8 fc a5 3e 38 df 96 3e
       0.3007752 0.34046522 0.32419467 0.29467177
000050 3d 2b aa 3e 5c 48 ac 3e 7d 3d 9a 3e 04 b4 94 3e
       0.33236113 0.33648956 0.30125037 0.2904359
000060 96 3d 9c 3e cb 77 9e 3e 29 f7 9b 3e 27 df aa 3e
       0.30515736 0.3095077 0.30462006 0.33373377
000070 30 9a a2 3e bc 18 a1 3e ff ce 9f 3e ca 58 b1 3e
       0.3175826 0.31464183 0.31212613 0.34638053

stage2.block1.bn2.bias f4 [32]
000000 09 27 5b 3c dc 3a 90 bc d7 7b c1 bb 4f af fd bc
       0.013376006 -0.017606191 -0.0059046554 -0.030967383
000010 d1 11 4e bd bb 3a 9f bc d4 7e 42 bd 96 34 15 bd
       -0.05030996 -0.019437185 -0.047484234 -0.036427103
000020 d2 8b 44 bc 1a 0a bf 3b a4 4f 88 bc 62 c6 20 bc
       -0.011996226 0.0058300616 -0.016639538 -0.009812923
000030 55 00 9c 3b f2 cd 65 ba 5e 20 06 bc 75 b6 ca 3c
       0.004760782 -0.0008766345 -0.008186428 0.024745205
000040 79 59 ad ba 39 5c e6 bb f2 47 1e 3c f0 87 3b bc
       -0.0013225517 -0.0070300368 0.009660708 -0.011445984
000050 d0 4e 09 3d 64 53 01 3d af 9b 06 3c 6c 87 d3 bc
       0.033522427 0.031573668 0.008215829 -0.02582141
000060 ee 54 03 3c 57 f0 3e bd a7 73 f8 bc 84 75 68 bc
       0.008015854 -0.046615925 -0.030328585 -0.014188174
000070 b4 f1 40 3c db 24 a9 bc 53 73 74 bc ea 46 01 bc
       0.0117763765 -0.020647457 -0.014920074 -0.007890442

stage2.block1.bn2.running_mean f4 [32]
000000 65 7f 74 bd 51 1e d4 bc e1 e1 44 bd b1 65 e4 3c
       -0.059691805 -0.025893362 -0.048066977 0.027880521
000010 33 cb 4d 3d a5 e7 95 bd 0d 21 0a 3d de 4d 49 3c
       0.050242614 -0.07319573 0.033722926 0.012286631
000020 73 5b 0c 3d e4 67 a9 3c f7 d7 3f bd e3 ff a9 bd
       0.0342669 0.020679422 -0.04683682 -0.0830076
000030 f7 7e 06 bd c3 47 46 bd 96 03 73 3c 7d ac 55 bc
       -0.032835927 -0.04840828 0.014832398 -0.013041613
000040 39 0a bf 3d ff 1e 7b bd 90 aa 8a 3d 29 59 43 bc
       0.09328122 -0.061308857 0.067708135 -0.011923113
000050 73 b4 f7 bd 9e 34 0f bd 14 57 13 bd 46 34 d3 3c
       -0.12094965 -0.03496229 -0.035971716 0.025781762
000060 5d b4 35 bd 1b 8f 2c 3d 76 2e ad bd e0 ed 9e bd
       -0.04436146 0.042128664 -0.08456127 -0.07760215
000070 2a 03 9c 3c 66 c0 a9 bd b7 24 57 bb 48 b4 0b be
       0.019044477 -0.0828865 -0.003282828 -0.1364299

stage2.block1.bn2.running_var f4 [32]
000000 c3 63 c1 3b 0e a3 cb 3b 60 3d d7 3b f1 cf 4d 3c
       0.005901785 0.006214506 0.0065685958 0.012561784
000010 77 93 40 3c 2c b9 29 3c 31 32 0c 3c 95 67 d8 3b
       0.011753908 0.01035909 0.008556888 0.006604145
000020 b2 93 d0 3b 10 c5 0e 3c d0 4d eb 3b 9e a4 35 3c
       0.006365263 0.008713976 0.007180907 0.011086611
000030 9c c8 3b 3c 70 6f d1 3b a5 3d 0a 3c 77 7f f6 3b
       0.011461403 0.006391458 0.008437549 0.007522519
000040 b5 51 bb 3b d0 80 e4 3b 0e d6 fc 3b 41 e2 1a 3c
       0.0057165273 0.0069733635 0.007715947 0.009453357
000050 dc 1b 1b 3c a5 19 de 3b ea 97 08 3c 91 66 e8 3b
       0.009467091 0.0067779594 0.008337 0.007092305
000060 89 68 da 3b 59 f0 02 3c 08 ec 19 3c 80 63 e5 3b
       0.0066652936 0.007991874 0.009394653 0.0070003867
000070 b6 ac d4 3b 60 68 1a 3c 76 fc 06 3c 05 0a de 3b
       0.0064903153 0.009424299 0.008238902 0.0067760968

stage2.block1.conv2.weight f4 [32, 32, 3, 3]
000000 5b 72 94 bc 73 8c 29 bc 15 13 4d 3c 92 be ff 3b
       -0.018120935 -0.010348427 0.012516757 0.0078047
000010 23 2e 1c 3c f3 8d 91 3b c9 fe 11 bc cb 7f 19 3c
       0.009532484 0.0044419705 -0.008910843 0.009368847
000020 09 76 78 bb 67 26 26 bd cd 02 e4 bb 9a 44 13 bd
       -0.0037912151 -0.040563967 -0.0069583417 -0.035954095
000030 77 87 f8 bc 68 f9 ba 3c a7 1d 90 3c db 9c 0f 3d
       -0.030338032 0.022824004 0.017592264 0.0350617
000040 74 05 25 3c 73 0b c3 3b a1 a0 2b ba 69 32 7c bd
       0.010072101 0.0059522926 -0.0006547068 -0.061571512
000050 bd a2 08 3d ff 56 a2 bc 6c 01 8a bb ee 73 04 bd
       0.033358324 -0.019816874 -0.0042115953 -0.03233712
000060 03 8d 46 3b 5e 8f f3 bb 24 28 40 3c d2 29 39 bc
       0.0030296452 -0.007432862 0.01172832 -0.011301475
000070 72 38 f0 3c b4 bb bd bc 1f 8d 08 bc de e5 12 3b
       0.02932379 -0.023160793 -0.008334427 0.0022414844
000080 5b c3 a0 bc 15 de 50 3a 03 10 95 bc f5 53 dd bc
       -0.019624403 0.0007967663 -0.018196112 -0.027017573
000090 2f 61 aa bd 99 e7 5d bd 98 f3 d3 3c 81 e0 c8 bc
       -0.083193175 -0.054175947 0.02587299 -0.024521114
0000a0 05 43 11 3c a1 46 34 bd c7 12 80 bc ca e6 9c bc
       0.008866076 -0.04401267 -0.015633954 -0.019153018
0000b0 07 89 c8 bc a1 5b 80 bc 3f f4 fb bc 3b 79 21 bc
       -0.024479402 -0.015668692 -0.030756114 -0.009855564
0000c0 b7 0b 5a bc 68 ae df bc 21 89 8f bc 94 0b a4 3c
       -0.013308457 -0.027304843 -0.017521443 0.020025052
0000d0 96 38 fa bc 70 62 37 3d 90 b6 81 bc d5 df 2d bd
       -0.03054456 0.04477161 -0.015834123 -0.04244979
0000e0 ac e8 39 3c b3 27 cb bc 76 f8 ed bc 0d c0 09 bd
       0.011346977 -0.024799204 -0.02904914 -0.03363042
0000f0 77 c9 15 3c f9 93 87 3c 6e 9f cf 3b e2 3a 3c bd
       0.009142271 0.016550051 0.006336144 -0.045954593
000100 2d 17 6f 3c 0a aa 17 3d d0 aa 6b bd 18 65 5b 3c
       0.014592928 0.037027396 -0.057535946 0.013390802
000110 b4 2e de 3c f3 67 72 bd df f2 51 3c de f1 93 bc
       0.02712188 -0.059181165 0.012814253 -0.018059667
000120 34 7e bf 3c 54 fa d4 3a d9 82 42 3d 78 f7 bb bc
       0.023375608 0.001624892 0.047488067 -0.02294515
000130 91 7a d9 3c 84 a3 cd bc d1 6f 06 3d 86 54 8a bb
       0.026547702 -0.025102384 0.03282148 -0.0042215018
000140 41 ab 7c bd 93 38 49 3a 80 67 d5 bc 5c 92 c8 ba
       -0.061686758 0.0007675972 -0.02605033 -0.0015302408
000150 0d 3c 00 bc 54 d2 54 bc 76 be 0d bd bf 54 b4 bc
       -0.007826817 -0.012989599 -0.034605466 -0.022013066
000160 5f 73 94 3c 68 4e 9d 3d ce b6 06 bc 24 1a da 3c
       0.01812142 0.076809704 -0.008222295 0.026623793
000170 7c 2c 95 3c ee 3b b1 3b c8 6b bc bb 4e 90 8f 3d
       0.018209688 0.0054087555 -0.005750153 0.07009946
000180 93 fa 8c bc 1a 92 ff 3c 3d 48 b8 3c 48 cd 47 bc
       -0.017209327 0.031197596 0.022495383 -0.012194939
000190 1e b8 fc 3b 00 6c 72 3c 9f 83 0f bd 35 8c c3 bc
       0.007712378 0.014796257 -0.035037633 -0.023870567
0001a0 98 fb 77 3c e2 1c 86 bb c7 9a 47 bd 15 5b 24 bc
       0.015135668 -0.0040927986 -0.04873159 -0.010031481
0001b0 fb 47 81 3c c4 8a 09 bd ee bc 77 ba ca 38 b2 3b
       0.015781393 -0.033579603 -0.0009450455 0.0054388987
0001c0 7b 86 a6 bc 47 58 33 bd b9 10 05 3d 98 09 ff bc
       -0.020327797 -0.04378536 0.03248665 -0.031132504
0001d0 6c 6f 1c bc bb ac 82 39 ca 92 1d 3d 02 92 f0 bc
       -0.009548049 0.00024924226 0.038470067 -0.029366497
0001e0 fd 94 08 3d 9f f2 06 3c a6 6d 37 bd 5c c3 80 bc
       0.03334521 0.008236556 -0.044782303 -0.015718155
0001f0 d7 a6 9b 3c 2b 5a 91 bd 0a 4c c1 3b 0d df 18 bc
       0.019000454 -0.07097276 0.005898957 -0.009330523
000200 b4 9c 24 bc cf cc 5f 3c b6 bb 0a bc 62 77 97 bc
       -0.010047127 0.01365967 -0.008467605 -0.018489543
000210 60 12 9d bc 7c c9 33 3d 89 ef 2d 3d 89 80 84 3d
       -0.019173801 0.043893322 0.042464767 0.06469829
000220 fc 67 88 3d 21 e3 cc bb 58 1a 24 bd 57 5c 04 3c
       0.066604584 -0.006252662 -0.040064186 0.008078656
000230 df 48 3a 3d cf 38 0a 3c fb 15 5c 3c ed ff 6f bc
       0.04547965 0.008436396 0.013432975 -0.01464842
000240 4e 1f 01 3d 91 da ec bb 02 a3 06 bd 27 e1 bc 3c
       0.031523995 -0.0072282036 -0.0328703 0.02305658
000250 99 35 2c 3d 88 66 8a ba 38 f8 27 bc 84 16 94 3a
       0.042043302 -0.0010559121 -0.010252051 0.0011298214
000260 51 42 ea 3c 65 b4 01 bd ad 64 0b bc 63 de 3d bd
       0.028596075 -0.03166618 -0.00850789 -0.046354663
000270 ca 90 2b bc ba 72 93 bb e2 f8 f9 3c 68 5d e5 bc
       -0.010471532 -0.0044997605 0.030514184 -0.027998641
000280 eb 94 87 bc 4e 4d 91 3d 9a 24 47 3d 99 3f 5a bc
       -0.016550502 0.07094823 0.04861889 -0.013320827
000290 14 6b e2 bc 4e d4 58 3b ef e2 1c bd fb aa 4e bc
       -0.02763895 0.0033085528 -0.03830236 -0.012614007
0002a0 d5 dd e6 3c b0 e9 dd 3b 25 b1 04 bd c1 50 0e 3c
       0.02818195 0.0067722425 -0.0323955 0.008686245
0002b0 76 aa 35 3d 18 4c a0 3c 21 f6 98 3c 1f 90 ec bb
       0.044352017 0.019567534 0.01867205 -0.007219329
0002c0 fd 3d 82 bd b7 0a df 3c bc 82 f4 3c d8 44 6b 3c
       -0.063594796 0.027226789 0.029847495 0.014359675
0002d0 d5 4b 55 3c eb 67 3d 3c a9 fd 48 3d 2b 8a 4f bc
       0.013018568 0.0115604205 0.049070034 -0.012667219
0002e0 7c 65 ab bb bf 63 02 3d c7 56 79 3c 59 bb d9 bc
       -0.0052306037 0.031833407 0.015218443 -0.026578592
0002f0 2d 6f 2e bd d7 e9 8e 3c 6b 09 5c bb c4 d4 bc bc
       -0.042586494 0.017445488 -0.003357495 -0.023050673
000300 b9 75 14 bc cd 7b 11 3c 64 1e fb bb d0 bc fe 3c
       -0.00906127 0.008879614 -0.007663535 0.031095892
000310 ef 2a 69 bd c2 7a 63 bd 06 e3 21 3d 50 42 bb 3b
       -0.05692571 -0.055536993 0.039523147 0.005714692
000320 ed 34 56 3b b4 64 44 bc 8d 62 1a 3d 28 69 c8 bc
       0.0032685355 -0.0119869 0.03769164 -0.024464205
000330 43 a5 b4 bb 9a 08 2b bd 75 7a be bc 9c a0 c2 bc
       -0.005512865 -0.04175625 -0.023251751 -0.023758225
000340 a1 23 b2 3c 89 94 f9 3c f7 2c 0f bb 80 a9 da bb
       0.021745505 0.030466335 -0.002184687 -0.006673038
000350 47 6a 0a 3c a6 3c ae bc d9 3d a1 bc c3 72 5f 3d
       0.00844819 -0.021269154 -0.019682812 0.054552805
000360 29 40 20 3c 67 ce 5c bd 95 8c c7 bc fc 5e 03 3d
       0.009780922 -0.053907778 -0.024359027 0.032073006
000370 42 1d ee bb 9e 42 ad 3c 43 38 ea bc c5 18 85 bc
       -0.0072666714 0.02114993 -0.02859128 -0.016247163
000380 12 ae 5a 3d bd c1 21 bd 31 7a 0e bd 42 db 86 bb
       0.053388663 -0.039491404 -0.0347845 -0.004115493
000390 4e 33 2a 3d 83 7a f0 3c 2e 19 8f 3a 8b a8 01 bd
       0.041552834 0.029355293 0.0010917538 -0.031654876
0003a0 ed 87 1b bc 2a 56 02 3d 07 49 f6 3c 1d 89 0b 3c
       -0.009492856 0.031820454 0.030064119 0.008516577
0003b0 fa 83 62 bd 82 61 a3 bc 5b 8d 86 3c e7 67 70 bd
       -0.055301644 -0.019943956 0.016424825 -0.05869284
0003c0 c9 b2 19 3d 72 75 95 bc 56 ba 2d bd 48 dc 8d 3b
       0.03752402 -0.018244479 -0.042414032 0.004329238
0003d0 b9 6e 08 bc e5 5d 65 3c 09 3d 00 bd da 39 d5 bb
       -0.00832718 0.013999437 -0.031308208 -0.0065071406
0003e0 71 e6 08 3c a7 be 03 bc e7 99 73 3c e1 27 4b 3d
       0.008355723 -0.0080410605 0.014868236 0.04959858
0003f0 d9 d5 30 bc 29 15 96 3b 82 86 27 bc fa 31 47 bd
       -0.010793173 0.004580159 -0.01022494 -0.048631646

stage2.block1.shortcut.conv.weight f4 [32, 16, 1, 1]
000000 00 6b 1d 3b b0 70 1e bd 4b 08 90 3d 05 aa 05 bd
       0.0024020076 -0.038681686 0.07032832 -0.032632846
000010 2e ad c8 3d f1 59 33 be 2a 6e 8f bd 2a 09 cb 3c
       0.097986564 -0.17514779 -0.07003434 0.024784643
000020 85 66 03 3c 8e 72 be bd 53 32 c3 bc ea b6 63 bd
       0.008020048 -0.09299193 -0.023827707 -0.055594362
000030 7a 1b d6 3d fd b3 2b bd a2 70 0d bc 03 27 5e bc
       0.104544595 -0.041919697 -0.008632811 -0.013559106
000040 13 af aa bb 42 c9 51 ba a5 22 9c bc b1 6a f6 3b
       -0.0052088588 -0.0008002707 -0.019059489 0.007520043
000050 82 d1 89 3d 04 29 95 3d 3a b8 36 bd 7b 76 35 3d
       0.067294136 0.07283214 -0.044609286 0.044302445
000060 1c d5 69 3d 02 d9 03 3e 6a 2a 4b bc d8 e2 8b b9
       0.057088003 0.1287575 -0.012400249 -0.00026681158
000070 10 80 4c 3d e2 a6 20 3d 7e b1 bc 3d 21 7a a2 3c
       0.049926817 0.03922165 0.092135414 0.019833626
000080 4f 60 2a 3d a9 19 46 3c 4c bf 9a 3c 87 7e 2b bd
       0.041595753 0.012091079 0.018890046 -0.041868713
000090 0e e8 e4 3c ac ff 2a bd 1d 6e 39 bc 57 25 1b 3e
       0.027942684 -0.041747734 -0.011317757 0.15150963
0000a0 13 8e bf bd ff 1c f4 bc dd 18 9d bd b4 8b f1 3d
       -0.093532704 -0.029798983 -0.07670758 0.117942244
0000b0 ef d7 a2 bc f2 9f e9 bd 27 c4 a0 bd 2d a3 f9 ba
       -0.019878356 -0.1140746 -0.07849913 -0.0019045823
0000c0 e2 c5 a5 bb 39 66 29 3c d4 41 a5 bd 53 3d f0 bd
       -0.00505899 0.010339313 -0.08069196 -0.11730447
0000d0 c4 39 8a 3c a8 88 00 3d 44 90 a8 3d e3 dc fd 3c
       0.016873248 0.031380326 0.082306415 0.030989116
0000e0 e9 82 e6 bd 52 a4 87 3c c6 ce 28 3d 1b 20 33 3d
       -0.11255438 0.016557846 0.04121282 0.04373179
0000f0 ce 98 6f 3d 50 96 b9 3d 5e b9 5b bc a9 86 aa 3c
       0.058495335 0.09061873 -0.013410894 0.020816164
000100 2b 23 79 3c d5 63 e8 bd 56 65 37 bd b7 30 d5 bd
       0.015206139 -0.113471664 -0.044774376 -0.10409682
000110 b7 b0 35 3d 91 45 ca 3d 9b 9a 31 be ed 57 c8 bd
       0.04435798 0.0987655 -0.17344134 -0.097823955
000120 57 f7 35 3d 73 8a a9 bc 3f 7e 94 3d 1d 58 07 be
       0.044425335 -0.0206959 0.07250642 -0.13217206
000130 5b da b9 bd 15 08 d8 3c ae 02 ac 3d ab 7e 68 bd
       -0.09074851 0.026371041 0.083989486 -0.056761425
000140 9f 71 58 bc 10 b6 19 bd 13 a7 2d bd 5e 3c 65 3d
       -0.013210683 -0.037527144 -0.042395663 0.055965774
000150 e7 0c 81 3c 29 b5 93 3d 6d b1 11 bd 7b 49 e1 bd
       0.015753223 0.07212288 -0.035569597 -0.110003434
000160 15 b9 9f 3d 8a 67 4b 3d b1 5d 91 bc 26 7d b3 3d
       0.077989735 0.04965929 -0.01774487 0.087641045
000170 66 21 5f 3d d3 c6 84 bd f8 e7 4c bd c3 87 b7 3c
       0.05447521 -0.06483235 -0.05002591 0.022403603
000180 bd ee 39 bd 74 a9 fe bd 52 2a 54 bd 43 9e b6 bc
       -0.045393694 -0.12434664 -0.051798172 -0.022292262
000190 b8 ec 40 be 70 c3 74 bd f5 b2 f8 bd ee 2a 7e bd
       -0.18840301 -0.059756696 -0.12143508 -0.06205266
0001a0 b9 9e 26 3d cd 83 6e bd 52 91 c3 3d c7 cf 6d bd
       0.040678713 -0.058231164 0.09549202 -0.05805948
0001b0 c2 e4 7f bd 60 2f 31 bd 95 88 13 3e 06 a1 ee bc
       -0.06247402 -0.04325807 0.1440757 -0.029129516
0001c0 8d 7e 05 3d f9 f6 06 be 9f a7 6d bc 61 1b af bd
       0.03259139 -0.1318015 -0.014505296 -0.08550144
0001d0 c4 e4 e1 3b d2 bd b5 3d 70 63 7e bd d5 b7 05 3c
       0.006893726 0.08874096 -0.06210655 0.008161505
0001e0 a8 21 dc bc cd a5 c9 3d 19 7b d2 3d 90 09 8c 3c
       -0.026871517 0.09846077 0.10277385 0.017094404
0001f0 47 16 84 bd df 42 90 3c dd 90 65 bd 74 24 c4 bd
       -0.064495616 0.017610012 -0.056046356 -0.095772654
000200 d8 8e de 3c e2 d4 a4 3d 94 51 2a bd 08 ba 28 bd
       0.027167723 0.08048417 -0.041581705 -0.04119304
000210 95 50 1c bd 28 a3 09 bc 2b d0 34 be 2d 82 07 be
       -0.038162787 -0.008400716 -0.17657535 -0.13233252
000220 85 df 69 bd f0 54 ff bd 0b c4 ec 3d 03 86 90 bc
       -0.05709793 -0.124673724 0.1156083 -0.017642027
000230 c7 4e 6a bd 9d 54 d7 bc 37 93 92 bd 6c 23 22 bd
       -0.057204034 -0.026285464 -0.07156985 -0.039584562
000240 72 25 17 3e 41 58 f1 bc 47 60 89 bd a3 46 a8 3d
       0.14760378 -0.029461028 -0.067078166 0.08216598
000250 9c 7d dd 3d 9a 47 b3 bc 3e c4 c0 3d 91 c8 db bd
       0.10814974 -0.021884728 0.0941243 -0.107316144
000260 6f 68 2b bd 66 bb 91 3d 15 ed 52 bd af 7f a1 3d
       -0.041847643 0.071158215 -0.05149563 0.07885682
000270 4c e4 39 be 77 c7 ab 3d 7c ec c5 bd 27 58 58 be
       -0.18153495 0.08387654 -0.096642464 -0.21127377
000280 98 cc b2 bd a9 54 c6 3b 63 ff 8f bd d3 cc 92 3d
       -0.087304294 0.0060525727 -0.07031133 0.07167973
000290 af ac 14 bd 20 bf f5 bd d1 f4 3a bc 4e 8b c5 3a
       -0.036297496 -0.11999345 -0.011410908 0.0015071423
0002a0 c2 8b 4b bc 3c ea 44 bd fd c5 bd 3c 27 a6 97 ba
       -0.012423458 -0.048074946 0.023165697 -0.0011569903
0002b0 8b d9 bb bc 5f 04 a7 bd 23 e4 cc 3d 00 6e 32 bb
       -0.022930881 -0.081551306 0.10004451 -0.002722621
0002c0 f5 14 47 3d 6f 41 e7 3d c9 9b 87 bc 14 55 32 bd
       0.04860397 0.11291777 -0.016553776 -0.043538168
0002d0 13 bf 02 be 27 bd ac bd d2 4e 29 be 5e dc 2f 3d
       -0.12768202 -0.084345154 -0.16533974 0.042934768
0002e0 2c 7b 85 3c 82 17 9c 3a 71 80 4f 3d bf f3 e4 bd
       0.016294084 0.0011908861 0.0506596 -0.111793034
0002f0 c1 05 bf bd 2f 49 19 be 01 0e 08 3e a7 c4 fe bc
       -0.09327269 -0.14969324 0.13286592 -0.03109963
000300 41 1d 1e 3d 13 f5 97 bd 11 e6 cf 3c a1 05 9a bc
       0.038602117 -0.07419791 0.025378259 -0.018801512
000310 c2 a9 51 bc d5 e5 1e be ef 3b 14 3e 48 44 8b 3d
       -0.012796821 -0.15517361 0.14475988 0.06800133
000320 57 6a 45 3c 7c 87 67 3d 30 57 33 bc 3d 51 94 3d
       0.012049279 0.056525692 -0.01094608 0.072420575
000330 cb d3 88 3d 48 bd d2 bd d8 78 39 bd d6 86 03 be
       0.06681021 -0.10290009 -0.04528126 -0.12844405
000340 5c 7f d2 3b 12 91 d0 3d e9 19 97 bc 4c 62 48 bd
       0.006423874 0.1018392 -0.018444972 -0.04892187
000350 48 5b 50 3b bd fd 20 3d 87 81 b2 bc 32 ca 32 3d
       0.003179269 0.039304484 -0.02179028 0.04364986
000360 d4 2e a2 3c 84 82 90 bd 8c f1 46 be 68 06 80 3d
       0.01979772 -0.07056144 -0.1942808 0.06251222
000370 20 7b 03 bd f8 ea 02 be 84 a7 20 bd e4 d8 06 bd
       -0.032099843 -0.12784946 -0.039222255 -0.032921687
000380 a3 c0 7a bd 2f 78 c3 bc 7e 6f c0 bd 74 47 f5 bd
       -0.06121887 -0.023861019 -0.093962654 -0.11976519
000390 1a 37 b3 bd 6f 71 0f 3d 7b 4f 37 3d 19 d1 fa 3d
       -0.08750744 0.035020288 0.044753533 0.122469135
0003a0 cf 47 3b 3c 8f d5 9c bb 81 91 9a bc 4e 4a 75 bb
       0.011430695 -0.0047862004 -0.01886821 -0.0037428322
0003b0 b8 6b cc bd b8 26 8e 3c ef 68 5c 3c c3 40 4a 3d
       -0.09981483 0.017352447 0.0134527525 0.049378168
0003c0 3d d1 0e 3d f6 5e e9 3c 74 cd c8 3d a0 2b b9 bc
       0.034867514 0.028487664 0.09804812 -0.02260381
0003d0 35 b0 64 bd e2 4d 62 3c 4f c5 8c 3c 7b 16 ba 3b
       -0.055832107 0.013812514 0.017183928 0.0056789494
0003e0 1f cf 52 bc 10 39 b7 bd b5 37 7c 3d e9 6e 0d 3b
       -0.012866764 -0.08946431 0.061576564 0.0021581
0003f0 3e 1b 5e 3e 0c d1 0a 3b 35 49 af bb 59 a6 e4 3d
       0.2169008 0.002118173 -0.005349303 0.11164541

stage3.block1.bn1.weight f4 [32]
000000 36 9b 8a 3e a2 e0 85 3e 52 87 90 3e 15 e9 8b 3e
       0.27071542 0.26147944 0.2822824 0.27326265
000010 6e dd 6f 3e ff cd 98 3e 4f ba 7b 3e b8 3d 90 3e
       0.23424312 0.29844663 0.2458279 0.28172088
000020 e2 bb 94 3e 71 68 90 3e 0e 25 80 3e 88 3e 95 3e
       0.29049593 0.28204682 0.2502827 0.2914927
000030 81 12 89 3e 26 01 7f 3e 53 bc 8c 3e e2 1e 8c 3e
       0.2677193 0.24902782 0.2748743 0.27367312
000040 3d 21 8f 3e c9 78 87 3e 03 b5 85 3e 58 0d 91 3e
       0.27955046 0.2645934 0.26114663 0.28330493
000050 7d f2 88 3e 23 a0 8c 3e e8 7c 8c 3e e9 62 86 3e
       0.26747504 0.27465925 0.27439046 0.26247337
000060 6e 17 95 3e 7c 81 90 3e 79 bb 9a 3e de 1a 91 3e
       0.29119438 0.2822379 0.30221155 0.2834081
000070 46 a7 67 3e 2b 26 98 3e a4 28 74 3e ed 4d 91 3e
       0.22622404 0.2971662 0.23843628 0.28379765
